globe_walking/resources/actuator_nets/unitree_go1.pt (torch, 16861 bytes, 5 tensors)

weight f4 [32, 6]
0.2741109 0.7196289 0.13097933 -0.037116032 0.072470464 -0.07844846 -0.17651467 -0.7806423
0.14836308 -0.07941975 0.0022451694 -0.016711725 0.13797486 0.02733667 0.21514815 -0.44969738
-0.12343344 -0.114497505 -0.08844777 0.780618 0.043209452 0.0228784 -0.02446023 0.015647613
-0.027362987 0.5373397 0.16651121 0.3214978 -0.34261426 0.187291 0.09160813 -0.6129539
-0.22123463 0.053247727 0.02446815 0.033681646 0.115543015 0.27735236 0.35299426 0.31488022
-0.06343008 0.04503337 -0.055299215 0.85014325 -0.15176545 0.012433886 0.028798342 -0.019056464
-0.23063517 -0.73014116 0.16067468 -0.10891186 0.044154543 -0.10355109 0.13762462 -0.716779
0.014793878 -0.15136611 0.141918 -0.036987435 -0.36373824 -0.24425927 -0.24697827 -0.4394738
-0.09502713 -0.1076516 0.08805599 -0.65341336 -0.2570292 0.01069815 0.026133241 -0.0039526764
0.51078314 0.34414288 0.19076835 0.11811385 -0.15745434 0.2396027 -0.17609894 -0.5233423
0.10750201 -0.10698151 0.076776855 0.07620674 0.31739482 0.3700324 0.11957062 0.25548014
0.12491274 0.07272818 -0.34663478 -0.05397363 -0.25135556 0.27108702 -0.075445116 0.048154064
0.034317352 -0.62958086 0.07948802 0.1383193 0.12073295 0.13917069 -0.24535431 -0.8526172
0.018214177 -0.019718084 -0.020927066 0.033393916 -0.12577859 -0.54739285 0.2681334 0.45937553
-0.085707694 0.009920921 0.13611174 -0.72414994 -0.31800014 -0.1269494 0.04979442 -0.024050565
-0.46505257 0.8701516 0.30691445 0.032471657 0.030385174 0.013936717 0.2249532 -0.032880027
-0.16369031 0.47974217 0.18497263 0.16405797 0.31890976 -1.0035186 0.5854439 0.04994629
-0.029078262 0.04292472 0.30861855 0.3123917 -0.11671639 0.19303215 0.024649594 0.03391354
-0.071523845 0.6347495 -0.11824092 0.04219098 0.14597668 -0.03443382 -0.13525909 -0.013318628
0.10843832 -0.6952294 -0.15667713 -0.2776656 -0.29782534 0.5340859 0.1888298 -0.042688686
0.2422744 -0.086725734 -0.2759925 0.93585324 -0.33244765 0.20565067 -0.11907081 -0.13365947
-0.0051371143 -0.29429632 0.20936476 0.16368118 -0.50394535 -0.10792793 0.2780512 0.3226423
-0.25393844 -0.12858894 0.009215566 -0.15178034 0.35206887 0.67245793 -0.36068618 -0.056208696
-0.029270945 0.17642123 -0.14670984 -0.7196536 -0.2874512 0.19126529 -0.1772616 -0.023578955
00000000: 4458 8c3e 9939 383f 721f 063e fb06 18bd
00000010: 656b 943d 96a9 a0bd 43c0 34be 2cd8 47bf
00000020: 7eec 173e d2a6 a2bd b123 133b 07e7 88bc
00000030: 4849 0d3e 27f1 df3c cc4f 5c3e bc3e e6be
00000040: acca fcbd ab7d eabd 1b24 b5bd 95d6 473f
00000050: 65fc 303d 7b6b bb3c d260 c8bc 6c2f 803c
00000060: 5828 e0bc 188f 093f ea81 2a3e 5c9b a43e
00000070: 236b afbe 36c9 3f3e 0b9d bb3d 8cea 1cbf
00000080: 558b 62be 4a1a 5a3d 6e71 c83c c4f5 093d
00000090: d1a1 ec3d 2101 8e3e aabb b43e fb37 a13e
000000a0: a1e7 81bd e974 383d 6e81 62bd fda2 593f
000000b0: 6768 1bbe 7fb7 4b3c 80ea eb3c 4d1c 9cbc
000000c0: a02b 6cbe 88ea 3abf e787 243e 2e0d dfbd
000000d0: 65db 343d 9812 d4bd 78ed 0c3e d47e 37bf
000000e0: 0662 723c b8ff 1abe f452 113e 2380 17bd
000000f0: e63b babe 1a1f 7abe dfe7 7cbe b602 e1be
00000100: 959d c2bd 7178 dcbd b356 b43d 1946 27bf
00000110: 5599 83be 4b47 2f3c 6115 d63c 7485 81bb
00000120: afc2 023f 7f33 b03e c758 433e ade5 f13d
00000130: b63b 21be 695a 753e 4853 34be c3f9 05bf
00000140: 042a dc3d 1f19 dbbd 2f3d 9d3d 4812 9c3d
00000150: 9381 a23e e374 bd3e 71e1 f43d 4bce 823e
00000160: 40d2 ff3d 83f2 943d 1d7a b1be 7413 5dbd
00000170: adb1 80be ebcb 8a3e f882 9abd 323d 453d
00000180: 5a90 0c3d 362c 21bf 9dca a23d 93a3 0d3e
00000190: d642 f73d c382 0e3e 293e 7bbe 1f45 5abf
000001a0: e635 953c d287 a1bc 3d6f abbc 0fc8 083d
000001b0: 1acc 00be f021 0cbf c848 893e 4533 eb3e
000001c0: 8487 afbd 5c8b 223c e060 0b3e e461 39bf
000001d0: ead0 a2be 06ff 01be 3cf5 4b3d b105 c5bc
000001e0: 5f1b eebe 41c2 5e3f e423 9d3e 0001 053d
000001f0: 54ea f83c d456 643c 225a 663e 35ad 06bd
00000200: 6f9e 27be c4a0 f53e 7769 3d3e d0fe 273e
00000210: 2448 a33e 4c73 80bf a7df 153f 7b94 4c3d
00000220: 8935 eebc d5d1 2f3d 4003 9e3e cef1 9f3e
00000230: 0109 efbd 38aa 453e f2ed c93c ede8 0a3d
00000240: 187b 92bd f17e 223f 4c28 f2bd 73d0 2c3d
00000250: e97a 153e 7a0a 0dbd 5c81 0abe 6036 5abc
00000260: e914 de3d 8efa 31bf f86f 20be 2f2a 8ebe
00000270: 907c 98be dbb9 083f 995c 413e 55da 2ebd
00000280: c816 783e 439d b1bd e44e 8dbe 1494 6f3f
00000290: 9436 aabe 1796 523e 66db f3bd 07de 08be
000002a0: 3d55 a8bb 02ae 96be b763 563e 0a9c 273e
000002b0: 9002 01bf 5209 ddbd ba5c 8e3e 5f31 a53e
000002c0: 3804 82be d2ac 03be e3fc 163c 4e6c 1bbe
000002d0: 5f42 b43e 3426 2c3f dcab b8be 173b 66bd
000002e0: 9fc9 efbc c4a7 343e 1b3b 16be 383b 38bf
000002f0: ce2c 93be 0cdb 433e 1184 35be a728 c1bc

bias f4 [32]
-0.3708206 -0.59189063 0.2270687 0.4891868 -0.31486455 -0.7861833 0.36990827 -0.47925055
0.384339 -0.010342539 -0.108574584 -0.8202804 0.76866496 -0.63351935 -0.17361188 -0.76150006
0.9284839 0.287337 0.31707335 0.3494244 -0.09785815 0.83130985 -0.14258733 -0.6744193
-1.0021133 -0.24869853 0.36120504 -0.15554728 -0.5463434 0.50170314 0.10142297 0.298803
00000000: 33dc bdbe 2586 17bf b384 683e b176 fa3e
00000010: ed35 a1be 4f43 49bf 9e64 bd3e 5460 f5be
00000020: 15c8 c43e c173 29bc 5a5c debd e5fd 51bf
00000030: 3ac7 443f 532e 22bf 50c7 31be abf1 42bf
00000040: 1fb1 6d3f d61d 933e 7057 a23e c1e7 b23e
00000050: db69 c8bd b9d0 543f 6a02 12be bea6 2cbf
00000060: 4045 80bf d4aa 7ebe deef b83e c947 1fbe
00000070: 29dd 0bbf 9e6f 003f d9b6 cf3d b5fc 983e

weight f4 [32, 32]
-0.5099642 0.3865058 -0.07079591 -0.46559417 -0.26339933 0.05748598 -0.06254512 -0.53878856
0.42404687 0.15603426 0.07557431 0.28992054 -0.05867754 0.15796891 -0.27853847 0.17256032
0.14389877 0.4403233 0.41646677 0.4728921 -0.74499035 0.22730011 0.31489456 -0.5046263
-0.58060414 -0.18404052 -0.21507749 -0.1753202 -0.029346194 -0.33756512 -0.17565608 0.29922527
0.3590247 -0.4022867 0.036729533 0.2907433 0.07941648 -0.3098593 0.24709259 0.22191137
-0.3813735 -0.37139094 -0.29431906 -0.37517896 0.18409416 -0.29205474 0.3702607 -0.24325122
-0.22912876 -0.5037118 0.042709753 -0.543539 0.8379264 0.04536999 -0.50970083 0.12271356
-0.00839957 0.004983701 0.36646247 0.53119993 -0.09313677 0.22685464 0.023654178 -0.17833158
-0.55473524 0.34560892 -0.38452026 -0.36265546 -0.17145646 0.22294182 -0.059569046 -0.3235577
0.46788958 0.30217785 0.09834901 0.4894704 0.059476927 0.29572195 -0.2553582 0.20241524
0.19501919 0.46136335 0.3154643 0.3493811 -0.4873544 0.14204094 0.39314097 -0.38294527
-0.2717519 -0.27218565 -0.20813978 -0.1214468 0.04766382 -0.31546706 -0.23840974 0.27882805
0.114758015 -0.6074909 0.14722009 0.7492277 0.17904416 -0.67658794 0.3292929 0.009260491
-0.19609024 -0.28072286 -0.38391283 -0.7549018 0.22719908 -0.4686591 0.04693974 -0.36649746
0.23417258 -0.12536803 -0.1338295 -0.10938168 0.54414034 0.061917417 -0.35637528 -0.023571277
-0.09172731 -0.06800926 0.3725778 0.052177567 -0.17704038 0.51975393 0.28613427 -0.107454136
-0.1532043 0.44044435 -0.227301 -0.44838685 -0.17306527 0.46423322 -0.42589605 -0.25693586
0.5427185 0.6229033 0.33038774 0.55076003 -0.09622355 0.3544502 -0.09138566 0.5191382
-0.08895063 0.29393455 -0.024423186 0.61934376 -0.86082274 -0.24633801 0.34307027 0.051238924
-0.18495385 0.21241085 -0.34203243 -0.4063401 -0.005904268 -0.36349887 -0.2275932 0.33234528
0.2764026 0.049719263 0.23469375 0.14486593 0.35343444 0.031062908 0.20134518 0.40875044
-0.6236003 -0.35022765 -0.38607687 -0.25034988 -0.013790734 -0.025977815 0.094405994 -0.08404954
-0.28215113 -0.46241182 -0.14389822 -0.4911596 0.39574853 -0.38791215 -0.11078612 0.3158229
0.6147357 0.053522244 0.10740422 0.3849778 0.023950167 0.16087314 0.24062681 -0.47976208
0.28331268 -0.010497056 0.2902564 0.007975808 0.49749973 0.09600002 0.26356247 0.62350696
-0.48364523 -0.44985402 -0.2390584 0.100885 -0.3811033 0.020182364 0.2734971 -0.11816215
-0.5109285 -0.44315353 -0.26212275 -0.6167019 0.55576473 -0.16574827 -0.3898824 0.7871996
0.75804377 0.06691082 0.11683019 0.32248923 0.047843553 0.071025886 0.37573066 -0.42421156
-0.40146866 0.11542207 -0.018499393 -0.14980999 -0.46208203 0.027529113 -0.123417534 -0.6018537
0.34508985 0.37323007 0.29242206 -0.014914571 0.07631838 0.05497535 -0.23184796 -0.060364243
0.57225037 0.38704225 0.2617715 0.41497457 -0.4015836 0.37729397 0.3544091 -0.70120037
-0.5571233 -0.10905642 -0.09815706 -0.2797177 0.029138494 -0.12093354 -0.2545127 0.38693026
00000000: 048d 02bf 17e4 c53e 72fd 90bd 5c62 eebe
00000010: 47dc 86be 6b76 6b3d a817 80bd 0cee 09bf
00000020: ac1c d93e 72c7 1f3e b4c6 9a3d 7770 943e
00000030: dc57 70bd 9ac2 213e 989c 8ebe a7b3 303e
00000040: 335a 133e 0e72 e13e 223b d53e ea1e f23e
00000050: b0b7 3ebf 5cc1 683e dc39 a13e 302f 01bf
00000060: 79a2 14bf 1e75 3cbe 463d 5cbe 2387 33be
00000070: 6e67 f0bc 56d5 acbe 30df 33be 0e34 993e
00000080: 16d2 b73e 86f8 cdbe b571 163d 4edc 943e
00000090: 1ca5 a23d e1a5 9ebe d705 7d3e bc3c 633e
000000a0: 6343 c3be f426 bebe fdb0 96be 7517 c0be
000000b0: 2e83 3c3e 3388 95be cf92 bd3e d916 79be
000000c0: bba0 6abe 42f3 00bf 6cf0 2e3d 5f25 0bbf
000000d0: 5882 563f e2d5 393d c17b 02bf 3f51 fb3d
000000e0: 5a9e 09bc 504e a33b f8a0 bb3e b8fc 073f
000000f0: 7ebe bebd 954c 683e 68c6 c13c 8e9c 36be
00000100: 2103 0ebf a7f3 b03e d7df c4be faad b9be
00000110: 4892 2fbe dc4a 643e acfe 73bd 5ba9 a5be
00000120: 398f ef3e 0eb7 9a3e 356b c93d dd9b fa3e
00000130: 149e 733d de68 973e 4fbe 82be f145 4f3e
00000140: 1cb3 473e d137 ec3e 8984 a13e 14e2 b23e
00000150: 8486 f9be 2e73 113e c649 c93e 6711 c4be
00000160: 1123 8bbe eb5b 8bbe 9822 55be 1ab9 f8bd
00000170: 233b 433d e684 a1be af21 74be 8dc2 8e3e
00000180: 4006 eb3d 8684 1bbf ddc0 163e 63cd 3f3f
00000190: 5a57 373e de34 2dbf 1499 a83e 50b9 173c
000001a0: e1cb 48be e8ba 8fbe 3990 c4be 3f41 41bf
000001b0: e0a6 683e 16f4 efbe e343 403d 8ea5 bbbe
000001c0: f0ca 6f3e 7a60 00be 9a0a 09be 8103 e0bd
000001d0: c84c 0b3f 1e9d 7d3d d276 b6be 8d18 c1bc
000001e0: 87db bbbd 7048 8bbd 84c2 be3e 25b8 553d
000001f0: 134a 35be 980e 053f 3180 923e ea10 dcbd
00000200: 97e1 1cbe ec81 e13e 98c1 68be f692 e5be
00000210: 0638 31be faaf ed3e 0c0f dabe 198d 83be
00000220: 9aef 0a3f 9776 1f3f 9528 a93e 9cfe 0c3f
00000230: da10 c5bd 7f7a b53e 6828 bbbd 3ee6 043f
00000240: bf2b b6bd 977e 963e 2213 c8bc 508d 1e3f
00000250: e15e 5cbf 0840 7cbe e8a6 af3e e8df 513d
00000260: 8b64 3dbe 3b82 593e e01e afbe cf0b d0be
00000270: 9778 c1bb 861c babe 310e 69be 2929 aa3e
00000280: a484 8d3e 6da6 4b3d 8f53 703e bc57 143e
00000290: 5cf5 b43e a477 fe3c 6e2d 4e3e bd47 d13e
000002a0: 45a4 1fbf 0a51 b3be deab c5be dc2d 80be
000002b0: 88f2 61bc 6dcf d4bc ee57 c13d 2a22 acbd
000002c0: 1d76 90be 3ec1 ecbe 0e5a 13be 4579 fbbe
000002d0: 8d9f ca3e 6c9c c6be d5e3 e2bd 8ab3 a13e
000002e0: 525f 1d3f 243a 5b3d bef6 db3d cf1b c53e
000002f0: 2433 c43c eebb 243e e066 763e 60a3 f5be
00000300: 5c0e 913e d8fb 2bbc 7d9c 943e f7ac 023c
00000310: 49b8 fe3e a99b c43d a9f1 863e 279e 1f3f
00000320: 59a0 f7be 4453 e6be bacb 74be cb9c ce3d
00000330: f91f c3be 7c55 a53c d007 8c3e fffe f1bd
00000340: 36cc 02bf 05e5 e2be f434 86be 2de0 1dbf
00000350: 9946 0e3f eab9 29be aa9e c7be ea85 493f
00000360: 280f 423f 8a08 893d ab44 ef3d 4f1d a53e
00000370: 9af7 433d 0576 913d c55f c03e 4232 d9be
00000380: 4d8d cdbe 6862 ec3d 0a8c 97bc ca67 19be
00000390: 0496 ecbe bc84 e13c 55c2 fcbd 1613 1abf
000003a0: 9eaf b03e 0318 bf3e 58b8 953e 3f5c 74bc
000003b0: d04c 9c3d d52d 613d 8d69 6dbe 7f40 77bd
000003c0: 007f 123f 672a c63e ea06 863e 8c77 d43e
000003d0: 5e9c cdbe ad2c c13e 1c75 b53e de81 33bf
000003e0: a29f 0ebf f958 dfbd 9206 c9bd 2937 8fbe
000003f0: dab3 ee3c 01ac f7bd 7d4f 82be b91b c63e

bias f4 [32]
0.33262715 -0.33012062 0.19776598 0.2226247 0.25003123 -0.47566977 -0.47856194 0.714787
0.42739323 0.25688452 -0.04069288 -0.21891509 -0.50826603 -0.114768095 -0.4030957 -0.629278
-0.1517797 -0.55134076 0.14534134 -0.6650176 0.6062325 -0.124576814 -0.25213283 0.022320224
-0.05471555 0.27510414 0.27493393 0.3674944 -0.08094109 -0.3271417 -0.11258337 -0.018590057
00000000: 1b4e aa3e 9205 a9be 2a83 4a3e bbf7 633e
00000010: 1804 803e fd8a f3be 1206 f5be 48fc 363f
00000020: 49d3 da3e 5e86 833e 94ad 26bd 472b 60be
00000030: b91d 02bf 890b ebbd 8f62 cebe 5d18 21bf
00000040: 236c 1bbe ab24 0dbf 5cd4 143e 983e 2abf
00000050: 0e32 1b3f 2122 ffbd 8e17 81be e7d8 b63c
00000060: 6a1d 60bd 73da 8c3e 24c4 8c3e 3a28 bc3e
00000070: 71c4 a5bd 1e7f a7be 1c92 e6bd 2d4a 98bc

weight f4 [1, 32]
0.8135429 -0.87266815 0.9210953 -0.91686267 0.7796767 -0.8966119 -0.8174104 0.885189
0.81642985 -0.8459015 -0.8870405 -0.8792813 -0.904174 0.88067716 0.84686995 -0.8965415
-0.8562613 -0.8104267 -0.83736557 -0.8949736 0.9117284 0.8808958 0.7840496 0.8994274
-0.9640272 -0.8194215 0.9526317 0.93693936 -0.9447542 0.74178493 0.8336221 0.8217303
00000000: 5944 503f 2e67 5fbf e7cc 6b3f 83b7 6abf
00000010: e498 473f 5c88 65bf cf41 51bf bf9b 623f
00000020: 8c01 513f 008d 58bf 1615 63bf 9418 61bf
00000030: f277 67bf 0f74 613f 78cc 583f be83 65bf
00000040: f133 5bbf 2078 4fbf 975d 56bf fd1c 65bf
00000050: 0867 693f 6382 613f 79b7 483f e040 663f
00000060: 7dca 76bf 9cc5 51bf acdf 733f 42db 6f3f
00000070: 69db 71bf 9ee5 3d3f 4268 553f eb5c 523f
